Effnet_Wind_B7(
  (model): GenEfficientNet(
    (conv_stem): Conv2dSame(3, 64, kernel_size=(3, 3), stride=(2, 2), bias=False)
    (bn1): BatchNorm2d(64, eps=0.001, momentum=0.5, affine=True, track_running_stats=True)
    (act1): SwishMe()
    (blocks): Sequential(
      (0): Sequential(
        (0): DepthwiseSeparableConv(
          (conv_dw): Conv2d(64, 64, kernel_size=(3, 3), stride=(1, 1), padding=(1, 1), groups=64, bias=False)
          (bn1): BatchNorm2d(64, eps=0.001, momentum=0.5, affine=True, track_running_stats=True)
          (act1): SwishMe()
          (se): SqueezeExcite(
            (avg_pool): AdaptiveAvgPool2d(output_size=1)
            (conv_reduce): Conv2d(64, 16, kernel_size=(1, 1), stride=(1, 1))
            (act1): SwishMe()
            (conv_expand): Conv2d(16, 64, kernel_size=(1, 1), stride=(1, 1))
          )
          (conv_pw): Conv2d(64, 32, kernel_size=(1, 1), stride=(1, 1), bias=False)
          (bn2): BatchNorm2d(32, eps=0.001, momentum=0.5, affine=True, track_running_stats=True)
          (act2): Identity()
        )
        (1): DepthwiseSeparableConv(
          (conv_dw): Conv2d(32, 32, kernel_size=(3, 3), stride=(1, 1), padding=(1, 1), groups=32, bias=False)
          (bn1): BatchNorm2d(32, eps=0.001, momentum=0.5, affine=True, track_running_stats=True)
          (act1): SwishMe()
          (se): SqueezeExcite(
            (avg_pool): AdaptiveAvgPool2d(output_size=1)
            (conv_reduce): Conv2d(32, 8, kernel_size=(1, 1), stride=(1, 1))
            (act1): SwishMe()
            (conv_expand): Conv2d(8, 32, kernel_size=(1, 1), stride=(1, 1))
          )
          (conv_pw): Conv2d(32, 32, kernel_size=(1, 1), stride=(1, 1), bias=False)
          (bn2): BatchNorm2d(32, eps=0.001, momentum=0.5, affine=True, track_running_stats=True)
          (act2): Identity()
        )
        (2): DepthwiseSeparableConv(
          (conv_dw): Conv2d(32, 32, kernel_size=(3, 3), stride=(1, 1), padding=(1, 1), groups=32, bias=False)
          (bn1): BatchNorm2d(32, eps=0.001, momentum=0.5, affine=True, track_running_stats=True)
          (act1): SwishMe()
          (se): SqueezeExcite(
            (avg_pool): AdaptiveAvgPool2d(output_size=1)
            (conv_reduce): Conv2d(32, 8, kernel_size=(1, 1), stride=(1, 1))
            (act1): SwishMe()
            (conv_expand): Conv2d(8, 32, kernel_size=(1, 1), stride=(1, 1))
          )
          (conv_pw): Conv2d(32, 32, kernel_size=(1, 1), stride=(1, 1), bias=False)
          (bn2): BatchNorm2d(32, eps=0.001, momentum=0.5, affine=True, track_running_stats=True)
          (act2): Identity()
        )
        (3): DepthwiseSeparableConv(
          (conv_dw): Conv2d(32, 32, kernel_size=(3, 3), stride=(1, 1), padding=(1, 1), groups=32, bias=False)
          (bn1): BatchNorm2d(32, eps=0.001, momentum=0.5, affine=True, track_running_stats=True)
          (act1): SwishMe()
          (se): SqueezeExcite(
            (avg_pool): AdaptiveAvgPool2d(output_size=1)
            (conv_reduce): Conv2d(32, 8, kernel_size=(1, 1), stride=(1, 1))
            (act1): SwishMe()
            (conv_expand): Conv2d(8, 32, kernel_size=(1, 1), stride=(1, 1))
          )
          (conv_pw): Conv2d(32, 32, kernel_size=(1, 1), stride=(1, 1), bias=False)
          (bn2): BatchNorm2d(32, eps=0.001, momentum=0.5, affine=True, track_running_stats=True)
          (act2): Identity()
        )
      )
      (1): Sequential(
        (0): InvertedResidual(
          (conv_pw): Conv2d(32, 192, kernel_size=(1, 1), stride=(1, 1), bias=False)
          (bn1): BatchNorm2d(192, eps=0.001, momentum=0.5, affine=True, track_running_stats=True)
          (act1): SwishMe()
          (conv_dw): Conv2dSame(192, 192, kernel_size=(3, 3), stride=(2, 2), groups=192, bias=False)
          (bn2): BatchNorm2d(192, eps=0.001, momentum=0.5, affine=True, track_running_stats=True)
          (act2): SwishMe()
          (se): SqueezeExcite(
            (avg_pool): AdaptiveAvgPool2d(output_size=1)
            (conv_reduce): Conv2d(192, 8, kernel_size=(1, 1), stride=(1, 1))
            (act1): SwishMe()
            (conv_expand): Conv2d(8, 192, kernel_size=(1, 1), stride=(1, 1))
          )
          (conv_pwl): Conv2d(192, 48, kernel_size=(1, 1), stride=(1, 1), bias=False)
          (bn3): BatchNorm2d(48, eps=0.001, momentum=0.5, affine=True, track_running_stats=True)
        )
        (1): InvertedResidual(
          (conv_pw): Conv2d(48, 288, kernel_size=(1, 1), stride=(1, 1), bias=False)
          (bn1): BatchNorm2d(288, eps=0.001, momentum=0.5, affine=True, track_running_stats=True)
          (act1): SwishMe()
          (conv_dw): Conv2d(288, 288, kernel_size=(3, 3), stride=(1, 1), padding=(1, 1), groups=288, bias=False)
          (bn2): BatchNorm2d(288, eps=0.001, momentum=0.5, affine=True, track_running_stats=True)
          (act2): SwishMe()
          (se): SqueezeExcite(
            (avg_pool): AdaptiveAvgPool2d(output_size=1)
            (conv_reduce): Conv2d(288, 12, kernel_size=(1, 1), stride=(1, 1))
            (act1): SwishMe()
            (conv_expand): Conv2d(12, 288, kernel_size=(1, 1), stride=(1, 1))
          )
          (conv_pwl): Conv2d(288, 48, kernel_size=(1, 1), stride=(1, 1), bias=False)
          (bn3): BatchNorm2d(48, eps=0.001, momentum=0.5, affine=True, track_running_stats=True)
        )
        (2): InvertedResidual(
          (conv_pw): Conv2d(48, 288, kernel_size=(1, 1), stride=(1, 1), bias=False)
          (bn1): BatchNorm2d(288, eps=0.001, momentum=0.5, affine=True, track_running_stats=True)
          (act1): SwishMe()
          (conv_dw): Conv2d(288, 288, kernel_size=(3, 3), stride=(1, 1), padding=(1, 1), groups=288, bias=False)
          (bn2): BatchNorm2d(288, eps=0.001, momentum=0.5, affine=True, track_running_stats=True)
          (act2): SwishMe()
          (se): SqueezeExcite(
            (avg_pool): AdaptiveAvgPool2d(output_size=1)
            (conv_reduce): Conv2d(288, 12, kernel_size=(1, 1), stride=(1, 1))
            (act1): SwishMe()
            (conv_expand): Conv2d(12, 288, kernel_size=(1, 1), stride=(1, 1))
          )
          (conv_pwl): Conv2d(288, 48, kernel_size=(1, 1), stride=(1, 1), bias=False)
          (bn3): BatchNorm2d(48, eps=0.001, momentum=0.5, affine=True, track_running_stats=True)
        )
        (3): InvertedResidual(
          (conv_pw): Conv2d(48, 288, kernel_size=(1, 1), stride=(1, 1), bias=False)
          (bn1): BatchNorm2d(288, eps=0.001, momentum=0.5, affine=True, track_running_stats=True)
          (act1): SwishMe()
          (conv_dw): Conv2d(288, 288, kernel_size=(3, 3), stride=(1, 1), padding=(1, 1), groups=288, bias=False)
          (bn2): BatchNorm2d(288, eps=0.001, momentum=0.5, affine=True, track_running_stats=True)
          (act2): SwishMe()
          (se): SqueezeExcite(
            (avg_pool): AdaptiveAvgPool2d(output_size=1)
            (conv_reduce): Conv2d(288, 12, kernel_size=(1, 1), stride=(1, 1))
            (act1): SwishMe()
            (conv_expand): Conv2d(12, 288, kernel_size=(1, 1), stride=(1, 1))
          )
          (conv_pwl): Conv2d(288, 48, kernel_size=(1, 1), stride=(1, 1), bias=False)
          (bn3): BatchNorm2d(48, eps=0.001, momentum=0.5, affine=True, track_running_stats=True)
        )
        (4): InvertedResidual(
          (conv_pw): Conv2d(48, 288, kernel_size=(1, 1), stride=(1, 1), bias=False)
          (bn1): BatchNorm2d(288, eps=0.001, momentum=0.5, affine=True, track_running_stats=True)
          (act1): SwishMe()
          (conv_dw): Conv2d(288, 288, kernel_size=(3, 3), stride=(1, 1), padding=(1, 1), groups=288, bias=False)
          (bn2): BatchNorm2d(288, eps=0.001, momentum=0.5, affine=True, track_running_stats=True)
          (act2): SwishMe()
          (se): SqueezeExcite(
            (avg_pool): AdaptiveAvgPool2d(output_size=1)
            (conv_reduce): Conv2d(288, 12, kernel_size=(1, 1), stride=(1, 1))
            (act1): SwishMe()
            (conv_expand): Conv2d(12, 288, kernel_size=(1, 1), stride=(1, 1))
          )
          (conv_pwl): Conv2d(288, 48, kernel_size=(1, 1), stride=(1, 1), bias=False)
          (bn3): BatchNorm2d(48, eps=0.001, momentum=0.5, affine=True, track_running_stats=True)
        )
        (5): InvertedResidual(
          (conv_pw): Conv2d(48, 288, kernel_size=(1, 1), stride=(1, 1), bias=False)
          (bn1): BatchNorm2d(288, eps=0.001, momentum=0.5, affine=True, track_running_stats=True)
          (act1): SwishMe()
          (conv_dw): Conv2d(288, 288, kernel_size=(3, 3), stride=(1, 1), padding=(1, 1), groups=288, bias=False)
          (bn2): BatchNorm2d(288, eps=0.001, momentum=0.5, affine=True, track_running_stats=True)
          (act2): SwishMe()
          (se): SqueezeExcite(
            (avg_pool): AdaptiveAvgPool2d(output_size=1)
            (conv_reduce): Conv2d(288, 12, kernel_size=(1, 1), stride=(1, 1))
            (act1): SwishMe()
            (conv_expand): Conv2d(12, 288, kernel_size=(1, 1), stride=(1, 1))
          )
          (conv_pwl): Conv2d(288, 48, kernel_size=(1, 1), stride=(1, 1), bias=False)
          (bn3): BatchNorm2d(48, eps=0.001, momentum=0.5, affine=True, track_running_stats=True)
        )
        (6): InvertedResidual(
          (conv_pw): Conv2d(48, 288, kernel_size=(1, 1), stride=(1, 1), bias=False)
          (bn1): BatchNorm2d(288, eps=0.001, momentum=0.5, affine=True, track_running_stats=True)
          (act1): SwishMe()
          (conv_dw): Conv2d(288, 288, kernel_size=(3, 3), stride=(1, 1), padding=(1, 1), groups=288, bias=False)
          (bn2): BatchNorm2d(288, eps=0.001, momentum=0.5, affine=True, track_running_stats=True)
          (act2): SwishMe()
          (se): SqueezeExcite(
            (avg_pool): AdaptiveAvgPool2d(output_size=1)
            (conv_reduce): Conv2d(288, 12, kernel_size=(1, 1), stride=(1, 1))
            (act1): SwishMe()
            (conv_expand): Conv2d(12, 288, kernel_size=(1, 1), stride=(1, 1))
          )
          (conv_pwl): Conv2d(288, 48, kernel_size=(1, 1), stride=(1, 1), bias=False)
          (bn3): BatchNorm2d(48, eps=0.001, momentum=0.5, affine=True, track_running_stats=True)
        )
      )
      (2): Sequential(
        (0): InvertedResidual(
          (conv_pw): Conv2d(48, 288, kernel_size=(1, 1), stride=(1, 1), bias=False)
          (bn1): BatchNorm2d(288, eps=0.001, momentum=0.5, affine=True, track_running_stats=True)
          (act1): SwishMe()
          (conv_dw): Conv2dSame(288, 288, kernel_size=(5, 5), stride=(2, 2), groups=288, bias=False)
          (bn2): BatchNorm2d(288, eps=0.001, momentum=0.5, affine=True, track_running_stats=True)
          (act2): SwishMe()
          (se): SqueezeExcite(
            (avg_pool): AdaptiveAvgPool2d(output_size=1)
            (conv_reduce): Conv2d(288, 12, kernel_size=(1, 1), stride=(1, 1))
            (act1): SwishMe()
            (conv_expand): Conv2d(12, 288, kernel_size=(1, 1), stride=(1, 1))
          )
          (conv_pwl): Conv2d(288, 80, kernel_size=(1, 1), stride=(1, 1), bias=False)
          (bn3): BatchNorm2d(80, eps=0.001, momentum=0.5, affine=True, track_running_stats=True)
        )
        (1): InvertedResidual(
          (conv_pw): Conv2d(80, 480, kernel_size=(1, 1), stride=(1, 1), bias=False)
          (bn1): BatchNorm2d(480, eps=0.001, momentum=0.5, affine=True, track_running_stats=True)
          (act1): SwishMe()
          (conv_dw): Conv2d(480, 480, kernel_size=(5, 5), stride=(1, 1), padding=(2, 2), groups=480, bias=False)
          (bn2): BatchNorm2d(480, eps=0.001, momentum=0.5, affine=True, track_running_stats=True)
          (act2): SwishMe()
          (se): SqueezeExcite(
            (avg_pool): AdaptiveAvgPool2d(output_size=1)
            (conv_reduce): Conv2d(480, 20, kernel_size=(1, 1), stride=(1, 1))
            (act1): SwishMe()
            (conv_expand): Conv2d(20, 480, kernel_size=(1, 1), stride=(1, 1))
          )
          (conv_pwl): Conv2d(480, 80, kernel_size=(1, 1), stride=(1, 1), bias=False)
          (bn3): BatchNorm2d(80, eps=0.001, momentum=0.5, affine=True, track_running_stats=True)
        )
        (2): InvertedResidual(
          (conv_pw): Conv2d(80, 480, kernel_size=(1, 1), stride=(1, 1), bias=False)
          (bn1): BatchNorm2d(480, eps=0.001, momentum=0.5, affine=True, track_running_stats=True)
          (act1): SwishMe()
          (conv_dw): Conv2d(480, 480, kernel_size=(5, 5), stride=(1, 1), padding=(2, 2), groups=480, bias=False)
          (bn2): BatchNorm2d(480, eps=0.001, momentum=0.5, affine=True, track_running_stats=True)
          (act2): SwishMe()
          (se): SqueezeExcite(
            (avg_pool): AdaptiveAvgPool2d(output_size=1)
            (conv_reduce): Conv2d(480, 20, kernel_size=(1, 1), stride=(1, 1))
            (act1): SwishMe()
            (conv_expand): Conv2d(20, 480, kernel_size=(1, 1), stride=(1, 1))
          )
          (conv_pwl): Conv2d(480, 80, kernel_size=(1, 1), stride=(1, 1), bias=False)
          (bn3): BatchNorm2d(80, eps=0.001, momentum=0.5, affine=True, track_running_stats=True)
        )
        (3): InvertedResidual(
          (conv_pw): Conv2d(80, 480, kernel_size=(1, 1), stride=(1, 1), bias=False)
          (bn1): BatchNorm2d(480, eps=0.001, momentum=0.5, affine=True, track_running_stats=True)
          (act1): SwishMe()
          (conv_dw): Conv2d(480, 480, kernel_size=(5, 5), stride=(1, 1), padding=(2, 2), groups=480, bias=False)
          (bn2): BatchNorm2d(480, eps=0.001, momentum=0.5, affine=True, track_running_stats=True)
          (act2): SwishMe()
          (se): SqueezeExcite(
            (avg_pool): AdaptiveAvgPool2d(output_size=1)
            (conv_reduce): Conv2d(480, 20, kernel_size=(1, 1), stride=(1, 1))
            (act1): SwishMe()
            (conv_expand): Conv2d(20, 480, kernel_size=(1, 1), stride=(1, 1))
          )
          (conv_pwl): Conv2d(480, 80, kernel_size=(1, 1), stride=(1, 1), bias=False)
          (bn3): BatchNorm2d(80, eps=0.001, momentum=0.5, affine=True, track_running_stats=True)
        )
        (4): InvertedResidual(
          (conv_pw): Conv2d(80, 480, kernel_size=(1, 1), stride=(1, 1), bias=False)
          (bn1): BatchNorm2d(480, eps=0.001, momentum=0.5, affine=True, track_running_stats=True)
          (act1): SwishMe()
          (conv_dw): Conv2d(480, 480, kernel_size=(5, 5), stride=(1, 1), padding=(2, 2), groups=480, bias=False)
          (bn2): BatchNorm2d(480, eps=0.001, momentum=0.5, affine=True, track_running_stats=True)
          (act2): SwishMe()
          (se): SqueezeExcite(
            (avg_pool): AdaptiveAvgPool2d(output_size=1)
            (conv_reduce): Conv2d(480, 20, kernel_size=(1, 1), stride=(1, 1))
            (act1): SwishMe()
            (conv_expand): Conv2d(20, 480, kernel_size=(1, 1), stride=(1, 1))
          )
          (conv_pwl): Conv2d(480, 80, kernel_size=(1, 1), stride=(1, 1), bias=False)
          (bn3): BatchNorm2d(80, eps=0.001, momentum=0.5, affine=True, track_running_stats=True)
        )
        (5): InvertedResidual(
          (conv_pw): Conv2d(80, 480, kernel_size=(1, 1), stride=(1, 1), bias=False)
          (bn1): BatchNorm2d(480, eps=0.001, momentum=0.5, affine=True, track_running_stats=True)
          (act1): SwishMe()
          (conv_dw): Conv2d(480, 480, kernel_size=(5, 5), stride=(1, 1), padding=(2, 2), groups=480, bias=False)
          (bn2): BatchNorm2d(480, eps=0.001, momentum=0.5, affine=True, track_running_stats=True)
          (act2): SwishMe()
          (se): SqueezeExcite(
            (avg_pool): AdaptiveAvgPool2d(output_size=1)
            (conv_reduce): Conv2d(480, 20, kernel_size=(1, 1), stride=(1, 1))
            (act1): SwishMe()
            (conv_expand): Conv2d(20, 480, kernel_size=(1, 1), stride=(1, 1))
          )
          (conv_pwl): Conv2d(480, 80, kernel_size=(1, 1), stride=(1, 1), bias=False)
          (bn3): BatchNorm2d(80, eps=0.001, momentum=0.5, affine=True, track_running_stats=True)
        )
        (6): InvertedResidual(
          (conv_pw): Conv2d(80, 480, kernel_size=(1, 1), stride=(1, 1), bias=False)
          (bn1): BatchNorm2d(480, eps=0.001, momentum=0.5, affine=True, track_running_stats=True)
          (act1): SwishMe()
          (conv_dw): Conv2d(480, 480, kernel_size=(5, 5), stride=(1, 1), padding=(2, 2), groups=480, bias=False)
          (bn2): BatchNorm2d(480, eps=0.001, momentum=0.5, affine=True, track_running_stats=True)
          (act2): SwishMe()
          (se): SqueezeExcite(
            (avg_pool): AdaptiveAvgPool2d(output_size=1)
            (conv_reduce): Conv2d(480, 20, kernel_size=(1, 1), stride=(1, 1))
            (act1): SwishMe()
            (conv_expand): Conv2d(20, 480, kernel_size=(1, 1), stride=(1, 1))
          )
          (conv_pwl): Conv2d(480, 80, kernel_size=(1, 1), stride=(1, 1), bias=False)
          (bn3): BatchNorm2d(80, eps=0.001, momentum=0.5, affine=True, track_running_stats=True)
        )
      )
      (3): Sequential(
        (0): InvertedResidual(
          (conv_pw): Conv2d(80, 480, kernel_size=(1, 1), stride=(1, 1), bias=False)
          (bn1): BatchNorm2d(480, eps=0.001, momentum=0.5, affine=True, track_running_stats=True)
          (act1): SwishMe()
          (conv_dw): Conv2dSame(480, 480, kernel_size=(3, 3), stride=(2, 2), groups=480, bias=False)
          (bn2): BatchNorm2d(480, eps=0.001, momentum=0.5, affine=True, track_running_stats=True)
          (act2): SwishMe()
          (se): SqueezeExcite(
            (avg_pool): AdaptiveAvgPool2d(output_size=1)
            (conv_reduce): Conv2d(480, 20, kernel_size=(1, 1), stride=(1, 1))
            (act1): SwishMe()
            (conv_expand): Conv2d(20, 480, kernel_size=(1, 1), stride=(1, 1))
          )
          (conv_pwl): Conv2d(480, 160, kernel_size=(1, 1), stride=(1, 1), bias=False)
          (bn3): BatchNorm2d(160, eps=0.001, momentum=0.5, affine=True, track_running_stats=True)
        )
        (1): InvertedResidual(
          (conv_pw): Conv2d(160, 960, kernel_size=(1, 1), stride=(1, 1), bias=False)
          (bn1): BatchNorm2d(960, eps=0.001, momentum=0.5, affine=True, track_running_stats=True)
          (act1): SwishMe()
          (conv_dw): Conv2d(960, 960, kernel_size=(3, 3), stride=(1, 1), padding=(1, 1), groups=960, bias=False)
          (bn2): BatchNorm2d(960, eps=0.001, momentum=0.5, affine=True, track_running_stats=True)
          (act2): SwishMe()
          (se): SqueezeExcite(
            (avg_pool): AdaptiveAvgPool2d(output_size=1)
            (conv_reduce): Conv2d(960, 40, kernel_size=(1, 1), stride=(1, 1))
            (act1): SwishMe()
            (conv_expand): Conv2d(40, 960, kernel_size=(1, 1), stride=(1, 1))
          )
          (conv_pwl): Conv2d(960, 160, kernel_size=(1, 1), stride=(1, 1), bias=False)
          (bn3): BatchNorm2d(160, eps=0.001, momentum=0.5, affine=True, track_running_stats=True)
        )
        (2): InvertedResidual(
          (conv_pw): Conv2d(160, 960, kernel_size=(1, 1), stride=(1, 1), bias=False)
          (bn1): BatchNorm2d(960, eps=0.001, momentum=0.5, affine=True, track_running_stats=True)
          (act1): SwishMe()
          (conv_dw): Conv2d(960, 960, kernel_size=(3, 3), stride=(1, 1), padding=(1, 1), groups=960, bias=False)
          (bn2): BatchNorm2d(960, eps=0.001, momentum=0.5, affine=True, track_running_stats=True)
          (act2): SwishMe()
          (se): SqueezeExcite(
            (avg_pool): AdaptiveAvgPool2d(output_size=1)
            (conv_reduce): Conv2d(960, 40, kernel_size=(1, 1), stride=(1, 1))
            (act1): SwishMe()
            (conv_expand): Conv2d(40, 960, kernel_size=(1, 1), stride=(1, 1))
          )
          (conv_pwl): Conv2d(960, 160, kernel_size=(1, 1), stride=(1, 1), bias=False)
          (bn3): BatchNorm2d(160, eps=0.001, momentum=0.5, affine=True, track_running_stats=True)
        )
        (3): InvertedResidual(
          (conv_pw): Conv2d(160, 960, kernel_size=(1, 1), stride=(1, 1), bias=False)
          (bn1): BatchNorm2d(960, eps=0.001, momentum=0.5, affine=True, track_running_stats=True)
          (act1): SwishMe()
          (conv_dw): Conv2d(960, 960, kernel_size=(3, 3), stride=(1, 1), padding=(1, 1), groups=960, bias=False)
          (bn2): BatchNorm2d(960, eps=0.001, momentum=0.5, affine=True, track_running_stats=True)
          (act2): SwishMe()
          (se): SqueezeExcite(
            (avg_pool): AdaptiveAvgPool2d(output_size=1)
            (conv_reduce): Conv2d(960, 40, kernel_size=(1, 1), stride=(1, 1))
            (act1): SwishMe()
            (conv_expand): Conv2d(40, 960, kernel_size=(1, 1), stride=(1, 1))
          )
          (conv_pwl): Conv2d(960, 160, kernel_size=(1, 1), stride=(1, 1), bias=False)
          (bn3): BatchNorm2d(160, eps=0.001, momentum=0.5, affine=True, track_running_stats=True)
        )
        (4): InvertedResidual(
          (conv_pw): Conv2d(160, 960, kernel_size=(1, 1), stride=(1, 1), bias=False)
          (bn1): BatchNorm2d(960, eps=0.001, momentum=0.5, affine=True, track_running_stats=True)
          (act1): SwishMe()
          (conv_dw): Conv2d(960, 960, kernel_size=(3, 3), stride=(1, 1), padding=(1, 1), groups=960, bias=False)
          (bn2): BatchNorm2d(960, eps=0.001, momentum=0.5, affine=True, track_running_stats=True)
          (act2): SwishMe()
          (se): SqueezeExcite(
            (avg_pool): AdaptiveAvgPool2d(output_size=1)
            (conv_reduce): Conv2d(960, 40, kernel_size=(1, 1), stride=(1, 1))
            (act1): SwishMe()
            (conv_expand): Conv2d(40, 960, kernel_size=(1, 1), stride=(1, 1))
          )
          (conv_pwl): Conv2d(960, 160, kernel_size=(1, 1), stride=(1, 1), bias=False)
          (bn3): BatchNorm2d(160, eps=0.001, momentum=0.5, affine=True, track_running_stats=True)
        )
        (5): InvertedResidual(
          (conv_pw): Conv2d(160, 960, kernel_size=(1, 1), stride=(1, 1), bias=False)
          (bn1): BatchNorm2d(960, eps=0.001, momentum=0.5, affine=True, track_running_stats=True)
          (act1): SwishMe()
          (conv_dw): Conv2d(960, 960, kernel_size=(3, 3), stride=(1, 1), padding=(1, 1), groups=960, bias=False)
          (bn2): BatchNorm2d(960, eps=0.001, momentum=0.5, affine=True, track_running_stats=True)
          (act2): SwishMe()
          (se): SqueezeExcite(
            (avg_pool): AdaptiveAvgPool2d(output_size=1)
            (conv_reduce): Conv2d(960, 40, kernel_size=(1, 1), stride=(1, 1))
            (act1): SwishMe()
            (conv_expand): Conv2d(40, 960, kernel_size=(1, 1), stride=(1, 1))
          )
          (conv_pwl): Conv2d(960, 160, kernel_size=(1, 1), stride=(1, 1), bias=False)
          (bn3): BatchNorm2d(160, eps=0.001, momentum=0.5, affine=True, track_running_stats=True)
        )
        (6): InvertedResidual(
          (conv_pw): Conv2d(160, 960, kernel_size=(1, 1), stride=(1, 1), bias=False)
          (bn1): BatchNorm2d(960, eps=0.001, momentum=0.5, affine=True, track_running_stats=True)
          (act1): SwishMe()
          (conv_dw): Conv2d(960, 960, kernel_size=(3, 3), stride=(1, 1), padding=(1, 1), groups=960, bias=False)
          (bn2): BatchNorm2d(960, eps=0.001, momentum=0.5, affine=True, track_running_stats=True)
          (act2): SwishMe()
          (se): SqueezeExcite(
            (avg_pool): AdaptiveAvgPool2d(output_size=1)
            (conv_reduce): Conv2d(960, 40, kernel_size=(1, 1), stride=(1, 1))
            (act1): SwishMe()
            (conv_expand): Conv2d(40, 960, kernel_size=(1, 1), stride=(1, 1))
          )
          (conv_pwl): Conv2d(960, 160, kernel_size=(1, 1), stride=(1, 1), bias=False)
          (bn3): BatchNorm2d(160, eps=0.001, momentum=0.5, affine=True, track_running_stats=True)
        )
        (7): InvertedResidual(
          (conv_pw): Conv2d(160, 960, kernel_size=(1, 1), stride=(1, 1), bias=False)
          (bn1): BatchNorm2d(960, eps=0.001, momentum=0.5, affine=True, track_running_stats=True)
          (act1): SwishMe()
          (conv_dw): Conv2d(960, 960, kernel_size=(3, 3), stride=(1, 1), padding=(1, 1), groups=960, bias=False)
          (bn2): BatchNorm2d(960, eps=0.001, momentum=0.5, affine=True, track_running_stats=True)
          (act2): SwishMe()
          (se): SqueezeExcite(
            (avg_pool): AdaptiveAvgPool2d(output_size=1)
            (conv_reduce): Conv2d(960, 40, kernel_size=(1, 1), stride=(1, 1))
            (act1): SwishMe()
            (conv_expand): Conv2d(40, 960, kernel_size=(1, 1), stride=(1, 1))
          )
          (conv_pwl): Conv2d(960, 160, kernel_size=(1, 1), stride=(1, 1), bias=False)
          (bn3): BatchNorm2d(160, eps=0.001, momentum=0.5, affine=True, track_running_stats=True)
        )
        (8): InvertedResidual(
          (conv_pw): Conv2d(160, 960, kernel_size=(1, 1), stride=(1, 1), bias=False)
          (bn1): BatchNorm2d(960, eps=0.001, momentum=0.5, affine=True, track_running_stats=True)
          (act1): SwishMe()
          (conv_dw): Conv2d(960, 960, kernel_size=(3, 3), stride=(1, 1), padding=(1, 1), groups=960, bias=False)
          (bn2): BatchNorm2d(960, eps=0.001, momentum=0.5, affine=True, track_running_stats=True)
          (act2): SwishMe()
          (se): SqueezeExcite(
            (avg_pool): AdaptiveAvgPool2d(output_size=1)
            (conv_reduce): Conv2d(960, 40, kernel_size=(1, 1), stride=(1, 1))
            (act1): SwishMe()
            (conv_expand): Conv2d(40, 960, kernel_size=(1, 1), stride=(1, 1))
          )
          (conv_pwl): Conv2d(960, 160, kernel_size=(1, 1), stride=(1, 1), bias=False)
          (bn3): BatchNorm2d(160, eps=0.001, momentum=0.5, affine=True, track_running_stats=True)
        )
        (9): InvertedResidual(
          (conv_pw): Conv2d(160, 960, kernel_size=(1, 1), stride=(1, 1), bias=False)
          (bn1): BatchNorm2d(960, eps=0.001, momentum=0.5, affine=True, track_running_stats=True)
          (act1): SwishMe()
          (conv_dw): Conv2d(960, 960, kernel_size=(3, 3), stride=(1, 1), padding=(1, 1), groups=960, bias=False)
          (bn2): BatchNorm2d(960, eps=0.001, momentum=0.5, affine=True, track_running_stats=True)
          (act2): SwishMe()
          (se): SqueezeExcite(
            (avg_pool): AdaptiveAvgPool2d(output_size=1)
            (conv_reduce): Conv2d(960, 40, kernel_size=(1, 1), stride=(1, 1))
            (act1): SwishMe()
            (conv_expand): Conv2d(40, 960, kernel_size=(1, 1), stride=(1, 1))
          )
          (conv_pwl): Conv2d(960, 160, kernel_size=(1, 1), stride=(1, 1), bias=False)
          (bn3): BatchNorm2d(160, eps=0.001, momentum=0.5, affine=True, track_running_stats=True)
        )
      )
      (4): Sequential(
        (0): InvertedResidual(
          (conv_pw): Conv2d(160, 960, kernel_size=(1, 1), stride=(1, 1), bias=False)
          (bn1): BatchNorm2d(960, eps=0.001, momentum=0.5, affine=True, track_running_stats=True)
          (act1): SwishMe()
          (conv_dw): Conv2d(960, 960, kernel_size=(5, 5), stride=(1, 1), padding=(2, 2), groups=960, bias=False)
          (bn2): BatchNorm2d(960, eps=0.001, momentum=0.5, affine=True, track_running_stats=True)
          (act2): SwishMe()
          (se): SqueezeExcite(
            (avg_pool): AdaptiveAvgPool2d(output_size=1)
            (conv_reduce): Conv2d(960, 40, kernel_size=(1, 1), stride=(1, 1))
            (act1): SwishMe()
            (conv_expand): Conv2d(40, 960, kernel_size=(1, 1), stride=(1, 1))
          )
          (conv_pwl): Conv2d(960, 224, kernel_size=(1, 1), stride=(1, 1), bias=False)
          (bn3): BatchNorm2d(224, eps=0.001, momentum=0.5, affine=True, track_running_stats=True)
        )
        (1): InvertedResidual(
          (conv_pw): Conv2d(224, 1344, kernel_size=(1, 1), stride=(1, 1), bias=False)
          (bn1): BatchNorm2d(1344, eps=0.001, momentum=0.5, affine=True, track_running_stats=True)
          (act1): SwishMe()
          (conv_dw): Conv2d(1344, 1344, kernel_size=(5, 5), stride=(1, 1), padding=(2, 2), groups=1344, bias=False)
          (bn2): BatchNorm2d(1344, eps=0.001, momentum=0.5, affine=True, track_running_stats=True)
          (act2): SwishMe()
          (se): SqueezeExcite(
            (avg_pool): AdaptiveAvgPool2d(output_size=1)
            (conv_reduce): Conv2d(1344, 56, kernel_size=(1, 1), stride=(1, 1))
            (act1): SwishMe()
            (conv_expand): Conv2d(56, 1344, kernel_size=(1, 1), stride=(1, 1))
          )
          (conv_pwl): Conv2d(1344, 224, kernel_size=(1, 1), stride=(1, 1), bias=False)
          (bn3): BatchNorm2d(224, eps=0.001, momentum=0.5, affine=True, track_running_stats=True)
        )
        (2): InvertedResidual(
          (conv_pw): Conv2d(224, 1344, kernel_size=(1, 1), stride=(1, 1), bias=False)
          (bn1): BatchNorm2d(1344, eps=0.001, momentum=0.5, affine=True, track_running_stats=True)
          (act1): SwishMe()
          (conv_dw): Conv2d(1344, 1344, kernel_size=(5, 5), stride=(1, 1), padding=(2, 2), groups=1344, bias=False)
          (bn2): BatchNorm2d(1344, eps=0.001, momentum=0.5, affine=True, track_running_stats=True)
          (act2): SwishMe()
          (se): SqueezeExcite(
            (avg_pool): AdaptiveAvgPool2d(output_size=1)
            (conv_reduce): Conv2d(1344, 56, kernel_size=(1, 1), stride=(1, 1))
            (act1): SwishMe()
            (conv_expand): Conv2d(56, 1344, kernel_size=(1, 1), stride=(1, 1))
          )
          (conv_pwl): Conv2d(1344, 224, kernel_size=(1, 1), stride=(1, 1), bias=False)
          (bn3): BatchNorm2d(224, eps=0.001, momentum=0.5, affine=True, track_running_stats=True)
        )
        (3): InvertedResidual(
          (conv_pw): Conv2d(224, 1344, kernel_size=(1, 1), stride=(1, 1), bias=False)
          (bn1): BatchNorm2d(1344, eps=0.001, momentum=0.5, affine=True, track_running_stats=True)
          (act1): SwishMe()
          (conv_dw): Conv2d(1344, 1344, kernel_size=(5, 5), stride=(1, 1), padding=(2, 2), groups=1344, bias=False)
          (bn2): BatchNorm2d(1344, eps=0.001, momentum=0.5, affine=True, track_running_stats=True)
          (act2): SwishMe()
          (se): SqueezeExcite(
            (avg_pool): AdaptiveAvgPool2d(output_size=1)
            (conv_reduce): Conv2d(1344, 56, kernel_size=(1, 1), stride=(1, 1))
            (act1): SwishMe()
            (conv_expand): Conv2d(56, 1344, kernel_size=(1, 1), stride=(1, 1))
          )
          (conv_pwl): Conv2d(1344, 224, kernel_size=(1, 1), stride=(1, 1), bias=False)
          (bn3): BatchNorm2d(224, eps=0.001, momentum=0.5, affine=True, track_running_stats=True)
        )
        (4): InvertedResidual(
          (conv_pw): Conv2d(224, 1344, kernel_size=(1, 1), stride=(1, 1), bias=False)
          (bn1): BatchNorm2d(1344, eps=0.001, momentum=0.5, affine=True, track_running_stats=True)
          (act1): SwishMe()
          (conv_dw): Conv2d(1344, 1344, kernel_size=(5, 5), stride=(1, 1), padding=(2, 2), groups=1344, bias=False)
          (bn2): BatchNorm2d(1344, eps=0.001, momentum=0.5, affine=True, track_running_stats=True)
          (act2): SwishMe()
          (se): SqueezeExcite(
            (avg_pool): AdaptiveAvgPool2d(output_size=1)
            (conv_reduce): Conv2d(1344, 56, kernel_size=(1, 1), stride=(1, 1))
            (act1): SwishMe()
            (conv_expand): Conv2d(56, 1344, kernel_size=(1, 1), stride=(1, 1))
          )
          (conv_pwl): Conv2d(1344, 224, kernel_size=(1, 1), stride=(1, 1), bias=False)
          (bn3): BatchNorm2d(224, eps=0.001, momentum=0.5, affine=True, track_running_stats=True)
        )
        (5): InvertedResidual(
          (conv_pw): Conv2d(224, 1344, kernel_size=(1, 1), stride=(1, 1), bias=False)
          (bn1): BatchNorm2d(1344, eps=0.001, momentum=0.5, affine=True, track_running_stats=True)
          (act1): SwishMe()
          (conv_dw): Conv2d(1344, 1344, kernel_size=(5, 5), stride=(1, 1), padding=(2, 2), groups=1344, bias=False)
          (bn2): BatchNorm2d(1344, eps=0.001, momentum=0.5, affine=True, track_running_stats=True)
          (act2): SwishMe()
          (se): SqueezeExcite(
            (avg_pool): AdaptiveAvgPool2d(output_size=1)
            (conv_reduce): Conv2d(1344, 56, kernel_size=(1, 1), stride=(1, 1))
            (act1): SwishMe()
            (conv_expand): Conv2d(56, 1344, kernel_size=(1, 1), stride=(1, 1))
          )
          (conv_pwl): Conv2d(1344, 224, kernel_size=(1, 1), stride=(1, 1), bias=False)
          (bn3): BatchNorm2d(224, eps=0.001, momentum=0.5, affine=True, track_running_stats=True)
        )
        (6): InvertedResidual(
          (conv_pw): Conv2d(224, 1344, kernel_size=(1, 1), stride=(1, 1), bias=False)
          (bn1): BatchNorm2d(1344, eps=0.001, momentum=0.5, affine=True, track_running_stats=True)
          (act1): SwishMe()
          (conv_dw): Conv2d(1344, 1344, kernel_size=(5, 5), stride=(1, 1), padding=(2, 2), groups=1344, bias=False)
          (bn2): BatchNorm2d(1344, eps=0.001, momentum=0.5, affine=True, track_running_stats=True)
          (act2): SwishMe()
          (se): SqueezeExcite(
            (avg_pool): AdaptiveAvgPool2d(output_size=1)
            (conv_reduce): Conv2d(1344, 56, kernel_size=(1, 1), stride=(1, 1))
            (act1): SwishMe()
            (conv_expand): Conv2d(56, 1344, kernel_size=(1, 1), stride=(1, 1))
          )
          (conv_pwl): Conv2d(1344, 224, kernel_size=(1, 1), stride=(1, 1), bias=False)
          (bn3): BatchNorm2d(224, eps=0.001, momentum=0.5, affine=True, track_running_stats=True)
        )
        (7): InvertedResidual(
          (conv_pw): Conv2d(224, 1344, kernel_size=(1, 1), stride=(1, 1), bias=False)
          (bn1): BatchNorm2d(1344, eps=0.001, momentum=0.5, affine=True, track_running_stats=True)
          (act1): SwishMe()
          (conv_dw): Conv2d(1344, 1344, kernel_size=(5, 5), stride=(1, 1), padding=(2, 2), groups=1344, bias=False)
          (bn2): BatchNorm2d(1344, eps=0.001, momentum=0.5, affine=True, track_running_stats=True)
          (act2): SwishMe()
          (se): SqueezeExcite(
            (avg_pool): AdaptiveAvgPool2d(output_size=1)
            (conv_reduce): Conv2d(1344, 56, kernel_size=(1, 1), stride=(1, 1))
            (act1): SwishMe()
            (conv_expand): Conv2d(56, 1344, kernel_size=(1, 1), stride=(1, 1))
          )
          (conv_pwl): Conv2d(1344, 224, kernel_size=(1, 1), stride=(1, 1), bias=False)
          (bn3): BatchNorm2d(224, eps=0.001, momentum=0.5, affine=True, track_running_stats=True)
        )
        (8): InvertedResidual(
          (conv_pw): Conv2d(224, 1344, kernel_size=(1, 1), stride=(1, 1), bias=False)
          (bn1): BatchNorm2d(1344, eps=0.001, momentum=0.5, affine=True, track_running_stats=True)
          (act1): SwishMe()
          (conv_dw): Conv2d(1344, 1344, kernel_size=(5, 5), stride=(1, 1), padding=(2, 2), groups=1344, bias=False)
          (bn2): BatchNorm2d(1344, eps=0.001, momentum=0.5, affine=True, track_running_stats=True)
          (act2): SwishMe()
          (se): SqueezeExcite(
            (avg_pool): AdaptiveAvgPool2d(output_size=1)
            (conv_reduce): Conv2d(1344, 56, kernel_size=(1, 1), stride=(1, 1))
            (act1): SwishMe()
            (conv_expand): Conv2d(56, 1344, kernel_size=(1, 1), stride=(1, 1))
          )
          (conv_pwl): Conv2d(1344, 224, kernel_size=(1, 1), stride=(1, 1), bias=False)
          (bn3): BatchNorm2d(224, eps=0.001, momentum=0.5, affine=True, track_running_stats=True)
        )
        (9): InvertedResidual(
          (conv_pw): Conv2d(224, 1344, kernel_size=(1, 1), stride=(1, 1), bias=False)
          (bn1): BatchNorm2d(1344, eps=0.001, momentum=0.5, affine=True, track_running_stats=True)
          (act1): SwishMe()
          (conv_dw): Conv2d(1344, 1344, kernel_size=(5, 5), stride=(1, 1), padding=(2, 2), groups=1344, bias=False)
          (bn2): BatchNorm2d(1344, eps=0.001, momentum=0.5, affine=True, track_running_stats=True)
          (act2): SwishMe()
          (se): SqueezeExcite(
            (avg_pool): AdaptiveAvgPool2d(output_size=1)
            (conv_reduce): Conv2d(1344, 56, kernel_size=(1, 1), stride=(1, 1))
            (act1): SwishMe()
            (conv_expand): Conv2d(56, 1344, kernel_size=(1, 1), stride=(1, 1))
          )
          (conv_pwl): Conv2d(1344, 224, kernel_size=(1, 1), stride=(1, 1), bias=False)
          (bn3): BatchNorm2d(224, eps=0.001, momentum=0.5, affine=True, track_running_stats=True)
        )
      )
      (5): Sequential(
        (0): InvertedResidual(
          (conv_pw): Conv2d(224, 1344, kernel_size=(1, 1), stride=(1, 1), bias=False)
          (bn1): BatchNorm2d(1344, eps=0.001, momentum=0.5, affine=True, track_running_stats=True)
          (act1): SwishMe()
          (conv_dw): Conv2dSame(1344, 1344, kernel_size=(5, 5), stride=(2, 2), groups=1344, bias=False)
          (bn2): BatchNorm2d(1344, eps=0.001, momentum=0.5, affine=True, track_running_stats=True)
          (act2): SwishMe()
          (se): SqueezeExcite(
            (avg_pool): AdaptiveAvgPool2d(output_size=1)
            (conv_reduce): Conv2d(1344, 56, kernel_size=(1, 1), stride=(1, 1))
            (act1): SwishMe()
            (conv_expand): Conv2d(56, 1344, kernel_size=(1, 1), stride=(1, 1))
          )
          (conv_pwl): Conv2d(1344, 384, kernel_size=(1, 1), stride=(1, 1), bias=False)
          (bn3): BatchNorm2d(384, eps=0.001, momentum=0.5, affine=True, track_running_stats=True)
        )
        (1): InvertedResidual(
          (conv_pw): Conv2d(384, 2304, kernel_size=(1, 1), stride=(1, 1), bias=False)
          (bn1): BatchNorm2d(2304, eps=0.001, momentum=0.5, affine=True, track_running_stats=True)
          (act1): SwishMe()
          (conv_dw): Conv2d(2304, 2304, kernel_size=(5, 5), stride=(1, 1), padding=(2, 2), groups=2304, bias=False)
          (bn2): BatchNorm2d(2304, eps=0.001, momentum=0.5, affine=True, track_running_stats=True)
          (act2): SwishMe()
          (se): SqueezeExcite(
            (avg_pool): AdaptiveAvgPool2d(output_size=1)
            (conv_reduce): Conv2d(2304, 96, kernel_size=(1, 1), stride=(1, 1))
            (act1): SwishMe()
            (conv_expand): Conv2d(96, 2304, kernel_size=(1, 1), stride=(1, 1))
          )
          (conv_pwl): Conv2d(2304, 384, kernel_size=(1, 1), stride=(1, 1), bias=False)
          (bn3): BatchNorm2d(384, eps=0.001, momentum=0.5, affine=True, track_running_stats=True)
        )
        (2): InvertedResidual(
          (conv_pw): Conv2d(384, 2304, kernel_size=(1, 1), stride=(1, 1), bias=False)
          (bn1): BatchNorm2d(2304, eps=0.001, momentum=0.5, affine=True, track_running_stats=True)
          (act1): SwishMe()
          (conv_dw): Conv2d(2304, 2304, kernel_size=(5, 5), stride=(1, 1), padding=(2, 2), groups=2304, bias=False)
          (bn2): BatchNorm2d(2304, eps=0.001, momentum=0.5, affine=True, track_running_stats=True)
          (act2): SwishMe()
          (se): SqueezeExcite(
            (avg_pool): AdaptiveAvgPool2d(output_size=1)
            (conv_reduce): Conv2d(2304, 96, kernel_size=(1, 1), stride=(1, 1))
            (act1): SwishMe()
            (conv_expand): Conv2d(96, 2304, kernel_size=(1, 1), stride=(1, 1))
          )
          (conv_pwl): Conv2d(2304, 384, kernel_size=(1, 1), stride=(1, 1), bias=False)
          (bn3): BatchNorm2d(384, eps=0.001, momentum=0.5, affine=True, track_running_stats=True)
        )
        (3): InvertedResidual(
          (conv_pw): Conv2d(384, 2304, kernel_size=(1, 1), stride=(1, 1), bias=False)
          (bn1): BatchNorm2d(2304, eps=0.001, momentum=0.5, affine=True, track_running_stats=True)
          (act1): SwishMe()
          (conv_dw): Conv2d(2304, 2304, kernel_size=(5, 5), stride=(1, 1), padding=(2, 2), groups=2304, bias=False)
          (bn2): BatchNorm2d(2304, eps=0.001, momentum=0.5, affine=True, track_running_stats=True)
          (act2): SwishMe()
          (se): SqueezeExcite(
            (avg_pool): AdaptiveAvgPool2d(output_size=1)
            (conv_reduce): Conv2d(2304, 96, kernel_size=(1, 1), stride=(1, 1))
            (act1): SwishMe()
            (conv_expand): Conv2d(96, 2304, kernel_size=(1, 1), stride=(1, 1))
          )
          (conv_pwl): Conv2d(2304, 384, kernel_size=(1, 1), stride=(1, 1), bias=False)
          (bn3): BatchNorm2d(384, eps=0.001, momentum=0.5, affine=True, track_running_stats=True)
        )
        (4): InvertedResidual(
          (conv_pw): Conv2d(384, 2304, kernel_size=(1, 1), stride=(1, 1), bias=False)
          (bn1): BatchNorm2d(2304, eps=0.001, momentum=0.5, affine=True, track_running_stats=True)
          (act1): SwishMe()
          (conv_dw): Conv2d(2304, 2304, kernel_size=(5, 5), stride=(1, 1), padding=(2, 2), groups=2304, bias=False)
          (bn2): BatchNorm2d(2304, eps=0.001, momentum=0.5, affine=True, track_running_stats=True)
          (act2): SwishMe()
          (se): SqueezeExcite(
            (avg_pool): AdaptiveAvgPool2d(output_size=1)
            (conv_reduce): Conv2d(2304, 96, kernel_size=(1, 1), stride=(1, 1))
            (act1): SwishMe()
            (conv_expand): Conv2d(96, 2304, kernel_size=(1, 1), stride=(1, 1))
          )
          (conv_pwl): Conv2d(2304, 384, kernel_size=(1, 1), stride=(1, 1), bias=False)
          (bn3): BatchNorm2d(384, eps=0.001, momentum=0.5, affine=True, track_running_stats=True)
        )
        (5): InvertedResidual(
          (conv_pw): Conv2d(384, 2304, kernel_size=(1, 1), stride=(1, 1), bias=False)
          (bn1): BatchNorm2d(2304, eps=0.001, momentum=0.5, affine=True, track_running_stats=True)
          (act1): SwishMe()
          (conv_dw): Conv2d(2304, 2304, kernel_size=(5, 5), stride=(1, 1), padding=(2, 2), groups=2304, bias=False)
          (bn2): BatchNorm2d(2304, eps=0.001, momentum=0.5, affine=True, track_running_stats=True)
          (act2): SwishMe()
          (se): SqueezeExcite(
            (avg_pool): AdaptiveAvgPool2d(output_size=1)
            (conv_reduce): Conv2d(2304, 96, kernel_size=(1, 1), stride=(1, 1))
            (act1): SwishMe()
            (conv_expand): Conv2d(96, 2304, kernel_size=(1, 1), stride=(1, 1))
          )
          (conv_pwl): Conv2d(2304, 384, kernel_size=(1, 1), stride=(1, 1), bias=False)
          (bn3): BatchNorm2d(384, eps=0.001, momentum=0.5, affine=True, track_running_stats=True)
        )
        (6): InvertedResidual(
          (conv_pw): Conv2d(384, 2304, kernel_size=(1, 1), stride=(1, 1), bias=False)
          (bn1): BatchNorm2d(2304, eps=0.001, momentum=0.5, affine=True, track_running_stats=True)
          (act1): SwishMe()
          (conv_dw): Conv2d(2304, 2304, kernel_size=(5, 5), stride=(1, 1), padding=(2, 2), groups=2304, bias=False)
          (bn2): BatchNorm2d(2304, eps=0.001, momentum=0.5, affine=True, track_running_stats=True)
          (act2): SwishMe()
          (se): SqueezeExcite(
            (avg_pool): AdaptiveAvgPool2d(output_size=1)
            (conv_reduce): Conv2d(2304, 96, kernel_size=(1, 1), stride=(1, 1))
            (act1): SwishMe()
            (conv_expand): Conv2d(96, 2304, kernel_size=(1, 1), stride=(1, 1))
          )
          (conv_pwl): Conv2d(2304, 384, kernel_size=(1, 1), stride=(1, 1), bias=False)
          (bn3): BatchNorm2d(384, eps=0.001, momentum=0.5, affine=True, track_running_stats=True)
        )
        (7): InvertedResidual(
          (conv_pw): Conv2d(384, 2304, kernel_size=(1, 1), stride=(1, 1), bias=False)
          (bn1): BatchNorm2d(2304, eps=0.001, momentum=0.5, affine=True, track_running_stats=True)
          (act1): SwishMe()
          (conv_dw): Conv2d(2304, 2304, kernel_size=(5, 5), stride=(1, 1), padding=(2, 2), groups=2304, bias=False)
          (bn2): BatchNorm2d(2304, eps=0.001, momentum=0.5, affine=True, track_running_stats=True)
          (act2): SwishMe()
          (se): SqueezeExcite(
            (avg_pool): AdaptiveAvgPool2d(output_size=1)
            (conv_reduce): Conv2d(2304, 96, kernel_size=(1, 1), stride=(1, 1))
            (act1): SwishMe()
            (conv_expand): Conv2d(96, 2304, kernel_size=(1, 1), stride=(1, 1))
          )
          (conv_pwl): Conv2d(2304, 384, kernel_size=(1, 1), stride=(1, 1), bias=False)
          (bn3): BatchNorm2d(384, eps=0.001, momentum=0.5, affine=True, track_running_stats=True)
        )
        (8): InvertedResidual(
          (conv_pw): Conv2d(384, 2304, kernel_size=(1, 1), stride=(1, 1), bias=False)
          (bn1): BatchNorm2d(2304, eps=0.001, momentum=0.5, affine=True, track_running_stats=True)
          (act1): SwishMe()
          (conv_dw): Conv2d(2304, 2304, kernel_size=(5, 5), stride=(1, 1), padding=(2, 2), groups=2304, bias=False)
          (bn2): BatchNorm2d(2304, eps=0.001, momentum=0.5, affine=True, track_running_stats=True)
          (act2): SwishMe()
          (se): SqueezeExcite(
            (avg_pool): AdaptiveAvgPool2d(output_size=1)
            (conv_reduce): Conv2d(2304, 96, kernel_size=(1, 1), stride=(1, 1))
            (act1): SwishMe()
            (conv_expand): Conv2d(96, 2304, kernel_size=(1, 1), stride=(1, 1))
          )
          (conv_pwl): Conv2d(2304, 384, kernel_size=(1, 1), stride=(1, 1), bias=False)
          (bn3): BatchNorm2d(384, eps=0.001, momentum=0.5, affine=True, track_running_stats=True)
        )
        (9): InvertedResidual(
          (conv_pw): Conv2d(384, 2304, kernel_size=(1, 1), stride=(1, 1), bias=False)
          (bn1): BatchNorm2d(2304, eps=0.001, momentum=0.5, affine=True, track_running_stats=True)
          (act1): SwishMe()
          (conv_dw): Conv2d(2304, 2304, kernel_size=(5, 5), stride=(1, 1), padding=(2, 2), groups=2304, bias=False)
          (bn2): BatchNorm2d(2304, eps=0.001, momentum=0.5, affine=True, track_running_stats=True)
          (act2): SwishMe()
          (se): SqueezeExcite(
            (avg_pool): AdaptiveAvgPool2d(output_size=1)
            (conv_reduce): Conv2d(2304, 96, kernel_size=(1, 1), stride=(1, 1))
            (act1): SwishMe()
            (conv_expand): Conv2d(96, 2304, kernel_size=(1, 1), stride=(1, 1))
          )
          (conv_pwl): Conv2d(2304, 384, kernel_size=(1, 1), stride=(1, 1), bias=False)
          (bn3): BatchNorm2d(384, eps=0.001, momentum=0.5, affine=True, track_running_stats=True)
        )
        (10): InvertedResidual(
          (conv_pw): Conv2d(384, 2304, kernel_size=(1, 1), stride=(1, 1), bias=False)
          (bn1): BatchNorm2d(2304, eps=0.001, momentum=0.5, affine=True, track_running_stats=True)
          (act1): SwishMe()
          (conv_dw): Conv2d(2304, 2304, kernel_size=(5, 5), stride=(1, 1), padding=(2, 2), groups=2304, bias=False)
          (bn2): BatchNorm2d(2304, eps=0.001, momentum=0.5, affine=True, track_running_stats=True)
          (act2): SwishMe()
          (se): SqueezeExcite(
            (avg_pool): AdaptiveAvgPool2d(output_size=1)
            (conv_reduce): Conv2d(2304, 96, kernel_size=(1, 1), stride=(1, 1))
            (act1): SwishMe()
            (conv_expand): Conv2d(96, 2304, kernel_size=(1, 1), stride=(1, 1))
          )
          (conv_pwl): Conv2d(2304, 384, kernel_size=(1, 1), stride=(1, 1), bias=False)
          (bn3): BatchNorm2d(384, eps=0.001, momentum=0.5, affine=True, track_running_stats=True)
        )
        (11): InvertedResidual(
          (conv_pw): Conv2d(384, 2304, kernel_size=(1, 1), stride=(1, 1), bias=False)
          (bn1): BatchNorm2d(2304, eps=0.001, momentum=0.5, affine=True, track_running_stats=True)
          (act1): SwishMe()
          (conv_dw): Conv2d(2304, 2304, kernel_size=(5, 5), stride=(1, 1), padding=(2, 2), groups=2304, bias=False)
          (bn2): BatchNorm2d(2304, eps=0.001, momentum=0.5, affine=True, track_running_stats=True)
          (act2): SwishMe()
          (se): SqueezeExcite(
            (avg_pool): AdaptiveAvgPool2d(output_size=1)
            (conv_reduce): Conv2d(2304, 96, kernel_size=(1, 1), stride=(1, 1))
            (act1): SwishMe()
            (conv_expand): Conv2d(96, 2304, kernel_size=(1, 1), stride=(1, 1))
          )
          (conv_pwl): Conv2d(2304, 384, kernel_size=(1, 1), stride=(1, 1), bias=False)
          (bn3): BatchNorm2d(384, eps=0.001, momentum=0.5, affine=True, track_running_stats=True)
        )
        (12): InvertedResidual(
          (conv_pw): Conv2d(384, 2304, kernel_size=(1, 1), stride=(1, 1), bias=False)
          (bn1): BatchNorm2d(2304, eps=0.001, momentum=0.5, affine=True, track_running_stats=True)
          (act1): SwishMe()
          (conv_dw): Conv2d(2304, 2304, kernel_size=(5, 5), stride=(1, 1), padding=(2, 2), groups=2304, bias=False)
          (bn2): BatchNorm2d(2304, eps=0.001, momentum=0.5, affine=True, track_running_stats=True)
          (act2): SwishMe()
          (se): SqueezeExcite(
            (avg_pool): AdaptiveAvgPool2d(output_size=1)
            (conv_reduce): Conv2d(2304, 96, kernel_size=(1, 1), stride=(1, 1))
            (act1): SwishMe()
            (conv_expand): Conv2d(96, 2304, kernel_size=(1, 1), stride=(1, 1))
          )
          (conv_pwl): Conv2d(2304, 384, kernel_size=(1, 1), stride=(1, 1), bias=False)
          (bn3): BatchNorm2d(384, eps=0.001, momentum=0.5, affine=True, track_running_stats=True)
        )
      )
      (6): Sequential(
        (0): InvertedResidual(
          (conv_pw): Conv2d(384, 2304, kernel_size=(1, 1), stride=(1, 1), bias=False)
          (bn1): BatchNorm2d(2304, eps=0.001, momentum=0.5, affine=True, track_running_stats=True)
          (act1): SwishMe()
          (conv_dw): Conv2d(2304, 2304, kernel_size=(3, 3), stride=(1, 1), padding=(1, 1), groups=2304, bias=False)
          (bn2): BatchNorm2d(2304, eps=0.001, momentum=0.5, affine=True, track_running_stats=True)
          (act2): SwishMe()
          (se): SqueezeExcite(
            (avg_pool): AdaptiveAvgPool2d(output_size=1)
            (conv_reduce): Conv2d(2304, 96, kernel_size=(1, 1), stride=(1, 1))
            (act1): SwishMe()
            (conv_expand): Conv2d(96, 2304, kernel_size=(1, 1), stride=(1, 1))
          )
          (conv_pwl): Conv2d(2304, 640, kernel_size=(1, 1), stride=(1, 1), bias=False)
          (bn3): BatchNorm2d(640, eps=0.001, momentum=0.5, affine=True, track_running_stats=True)
        )
        (1): InvertedResidual(
          (conv_pw): Conv2d(640, 3840, kernel_size=(1, 1), stride=(1, 1), bias=False)
          (bn1): BatchNorm2d(3840, eps=0.001, momentum=0.5, affine=True, track_running_stats=True)
          (act1): SwishMe()
          (conv_dw): Conv2d(3840, 3840, kernel_size=(3, 3), stride=(1, 1), padding=(1, 1), groups=3840, bias=False)
          (bn2): BatchNorm2d(3840, eps=0.001, momentum=0.5, affine=True, track_running_stats=True)
          (act2): SwishMe()
          (se): SqueezeExcite(
            (avg_pool): AdaptiveAvgPool2d(output_size=1)
            (conv_reduce): Conv2d(3840, 160, kernel_size=(1, 1), stride=(1, 1))
            (act1): SwishMe()
            (conv_expand): Conv2d(160, 3840, kernel_size=(1, 1), stride=(1, 1))
          )
          (conv_pwl): Conv2d(3840, 640, kernel_size=(1, 1), stride=(1, 1), bias=False)
          (bn3): BatchNorm2d(640, eps=0.001, momentum=0.5, affine=True, track_running_stats=True)
        )
        (2): InvertedResidual(
          (conv_pw): Conv2d(640, 3840, kernel_size=(1, 1), stride=(1, 1), bias=False)
          (bn1): BatchNorm2d(3840, eps=0.001, momentum=0.5, affine=True, track_running_stats=True)
          (act1): SwishMe()
          (conv_dw): Conv2d(3840, 3840, kernel_size=(3, 3), stride=(1, 1), padding=(1, 1), groups=3840, bias=False)
          (bn2): BatchNorm2d(3840, eps=0.001, momentum=0.5, affine=True, track_running_stats=True)
          (act2): SwishMe()
          (se): SqueezeExcite(
            (avg_pool): AdaptiveAvgPool2d(output_size=1)
            (conv_reduce): Conv2d(3840, 160, kernel_size=(1, 1), stride=(1, 1))
            (act1): SwishMe()
            (conv_expand): Conv2d(160, 3840, kernel_size=(1, 1), stride=(1, 1))
          )
          (conv_pwl): Conv2d(3840, 640, kernel_size=(1, 1), stride=(1, 1), bias=False)
          (bn3): BatchNorm2d(640, eps=0.001, momentum=0.5, affine=True, track_running_stats=True)
        )
        (3): InvertedResidual(
          (conv_pw): Conv2d(640, 3840, kernel_size=(1, 1), stride=(1, 1), bias=False)
          (bn1): BatchNorm2d(3840, eps=0.001, momentum=0.5, affine=True, track_running_stats=True)
          (act1): SwishMe()
          (conv_dw): Conv2d(3840, 3840, kernel_size=(3, 3), stride=(1, 1), padding=(1, 1), groups=3840, bias=False)
          (bn2): BatchNorm2d(3840, eps=0.001, momentum=0.5, affine=True, track_running_stats=True)
          (act2): SwishMe()
          (se): SqueezeExcite(
            (avg_pool): AdaptiveAvgPool2d(output_size=1)
            (conv_reduce): Conv2d(3840, 160, kernel_size=(1, 1), stride=(1, 1))
            (act1): SwishMe()
            (conv_expand): Conv2d(160, 3840, kernel_size=(1, 1), stride=(1, 1))
          )
          (conv_pwl): Conv2d(3840, 640, kernel_size=(1, 1), stride=(1, 1), bias=False)
          (bn3): BatchNorm2d(640, eps=0.001, momentum=0.5, affine=True, track_running_stats=True)
        )
      )
    )
    (conv_head): Conv2d(640, 2560, kernel_size=(1, 1), stride=(1, 1), bias=False)
    (bn2): BatchNorm2d(2560, eps=0.001, momentum=0.5, affine=True, track_running_stats=True)
    (act2): SwishMe()
    (global_pool): AdaptiveAvgPool2d(output_size=1)
    (classifier): Linear(in_features=2560, out_features=1, bias=True)
  )
)
